outputs/logreg_final.pt (torch, 5112 bytes, 3 tensors)

lin.weight f4 [1, 21, 1, 1]
2.494205 0.02489113 -0.060389042 0.19666652 -0.10581983 0.008775189 0.07610324 0.0067261998
-0.22941571 0.26227382 -0.24617893 -0.011802448 0.19411746 -0.00051830325 0.040463537 0.10898108
-0.05144437 -0.04397607 -0.10500197 -0.2583072 0.36004958
00000000: 0ea1 1f40 7ce8 cb3c 805a 77bd f362 493e
00000010: 11b8 d8bd cfc5 0f3c 04dc 9b3d 7467 dc3b
00000020: f4eb 6abe c148 863e 5416 7cbe 0e5f 41bc
00000030: bac6 463e bede 07ba 18bd 253d 7931 df3d
00000040: 55b7 52bd 4020 34bd 460b d7bd d740 84be
00000050: 6b58 b83e

meanC f4 [21]
0.0 0.1443636 0.7696708 21.440453 0.8834544 0.77144426 0.45591417 -0.12185901
0.0 69.14124 -1.9951799 0.13514192 52.159626 176.45856 0.11473474 0.38228282
-0.29209906 0.0058718487 0.025452392 3.3245728 4.4448905
00000000: 0000 0000 0dd4 133e 2509 453f 0c86 ab41
00000010: 112a 623f 5f7d 453f 956d e93e 3791 f9bd
00000020: 0000 0000 5148 8a42 0e62 ffbf a562 0a3e
00000030: 75a3 5042 6475 3043 0cfa ea3d 93ba c33e
00000040: 028e 95be a368 c03b 8981 d03c cdc5 5440
00000050: 8b3c 8e40

stdC f4 [21]
1.0 1.8445816 2.0216749 7.186356 0.09501695 0.10820815 0.2737418 1.8389825
1.0 20.356693 2.3912199 1.0820094 18.454075 49.113125 0.7417068 0.9328442
1.5734373 0.033559155 0.13813809 1.6805077 2.3838303
00000000: 0000 803f 401b ec3f 1f63 0140 a1f6 e540
00000010: 3f98 c23d 3c9c dd3d e327 8c3e c763 eb3f
00000020: 0000 803f 82da a241 bf09 1940 497f 8a3f
00000030: f2a1 9341 d773 4442 7fe0 3d3f e1ce 6e3f
00000040: 6566 c93f 5375 093d 1274 0d3e e01a d73f
00000050: ad90 1840
